…
       total files =  71 , going to load total_load =  40\
total files =  71 , going to load total_load =  40\
   get_sample_dimensions: aaj_0171_Baby_Crying_6.mp3.npz: melgram.shape =  (1, 96, 3419, 2)\
 melgram dimensions:  (1, 96, 3419, 2)\
\
 Loading class 1/2: 'baby', File 1/24: Preproc/Train/baby/aaj_0171_Baby_Crying_6 Loading class 1/2: 'baby', File 24/24: Preproc/Train/baby/zapsplat_cartoon_male_crying_19919.mp3.npz                  \
 Loading class 2/2: 'glass', File 1/47: Preproc/Train/glass/zapsplat_impacts_glass_smash_large_window_18092.mp3.npz                  \
 MyCNN_Keras2: X_shape =  (40, 96, 3419, 2) , channels =  2\
2019-04-14 14:06:18.259582: I tensorflow/core/platform/cpu_feature_guard.cc:141] Your CPU supports instructions that this TensorFlow binary was not compiled to use: AVX2 FMA\
Looking for previous weights...\
No weights file detected, so starting from scratch.\
 Available GPUs =  [] , count =  0\
Summary of serial model (duplicated across 0 GPUs):\
_________________________________________________________________\
Layer (type)                 Output Shape              Param #   \
=================================================================\
Input (Conv2D)               (None, 94, 3417, 32)      608       \
_________________________________________________________________\
batch_normalization_1 (Batch (None, 94, 3417, 32)      376       \
_________________________________________________________________\
activation_1 (Activation)    (None, 94, 3417, 32)      0         \
_________________________________________________________________\
conv2d_1 (Conv2D)            (None, 92, 3415, 32)      9248      \
_________________________________________________________________\
activation_2 (Activation)    (None, 92, 3415, 32)      0         \
_________________________________________________________________\
max_pooling2d_1 (MaxPooling2 (None, 46, 1707, 32)      0         \
_________________________________________________________________\
dropout_1 (Dropout)          (None, 46, 1707, 32)      0         \
_________________________________________________________________\
conv2d_2 (Conv2D)            (None, 44, 1705, 32)      9248      \
_________________________________________________________________\
activation_3 (Activation)    (None, 44, 1705, 32)      0         \
_________________________________________________________________\
max_pooling2d_2 (MaxPooling2 (None, 22, 852, 32)       0         \
_________________________________________________________________\
dropout_2 (Dropout)          (None, 22, 852, 32)       0         \
_________________________________________________________________\
conv2d_3 (Conv2D)            (None, 20, 850, 32)       9248      \
_________________________________________________________________\
activation_4 (Activation)    (None, 20, 850, 32)       0         \
_________________________________________________________________\
max_pooling2d_3 (MaxPooling2 (None, 10, 425, 32)       0         \
_________________________________________________________________\
dropout_3 (Dropout)          (None, 10, 425, 32)       0         \
_________________________________________________________________\
flatten_1 (Flatten)          (None, 136000)            0         \
_________________________________________________________________\
dense_1 (Dense)              (None, 128)               17408128  \
_________________________________________________________________\
activation_5 (Activation)    (None, 128)               0         \
_________________________________________________________________\
dropout_4 (Dropout)          (None, 128)               0         \
_________________________________________________________________\
dense_2 (Dense)              (None, 2)                 258       \
_________________________________________________________________\
Output (Activation)          (None, 2)                 0         \
=================================================================\
Total params: 17,437,114\
Trainable params: 17,436,926\
Non-trainable params: 188\
_________________________________________________________________\
Train on 30 samples, validate on 10 samples\
Epoch 1/20\
2019-04-14 14:06:20.036226: W tensorflow/core/framework/allocator.cc:113] Allocation of 69632000 exceeds 10% of system memory.\
…
